Found 50 images belonging to 2 classes.
Found 20 images belonging to 2 classes.
Model: "sequential"
_________________________________________________________________
Layer (type)                 Output Shape              Param #   
=================================================================
conv2d (Conv2D)              (None, 148, 148, 32)      896       
_________________________________________________________________
max_pooling2d (MaxPooling2D) (None, 74, 74, 32)        0         
_________________________________________________________________
conv2d_1 (Conv2D)            (None, 72, 72, 64)        18496     
_________________________________________________________________
max_pooling2d_1 (MaxPooling2 (None, 36, 36, 64)        0         
_________________________________________________________________
conv2d_2 (Conv2D)            (None, 34, 34, 128)       73856     
_________________________________________________________________
max_pooling2d_2 (MaxPooling2 (None, 17, 17, 128)       0         
_________________________________________________________________
conv2d_3 (Conv2D)            (None, 15, 15, 128)       147584    
_________________________________________________________________
max_pooling2d_3 (MaxPooling2 (None, 7, 7, 128)         0         
_________________________________________________________________
dropout (Dropout)            (None, 7, 7, 128)         0         
_________________________________________________________________
flatten (Flatten)            (None, 6272)              0         
_________________________________________________________________
dense (Dense)                (None, 256)               1605888   
_________________________________________________________________
dense_1 (Dense)              (None, 2)                 514       
=================================================================
Total params: 1,847,234
Trainable params: 1,847,234
Non-trainable params: 0
_________________________________________________________________
Epoch 1/100
1/1 [==============================] - ETA: 0s - loss: 0.7184 - accuracy: 0.42001/1 [==============================] - 0s 481ms/step - loss: 0.7184 - accuracy: 0.4200 - val_loss: 0.8425 - val_accuracy: 0.4500
…
